rl_sac/rl_sac/saved_model/10_11/sac_actor_10_11_EP0.pt (torch, 418080 bytes, 10 tensors)

fc_1.weight f4 [256, 16]
0	0x3c3bc15a	0.011459673
1	0x3c3aadf4	0.011394013
2	0x3c1cb8c0	0.009565532
3	0x3c485d41	0.012229265
4	0x3c0efe5f	0.008727639
5	0x3bee88e4	0.007279502
6	0x3bf5abd3	0.0074972897
7	0x3bfa60ae	0.0076409196
8	0x3c042e7d	0.008067724
9	0x3c23070e	0.009950412
10	0x3c3abcf0	0.011397585
11	0x3c0065b3	0.007836747
12	0x3b779fc0	0.0037784427
13	0x3c24ce04	0.010058884
14	0x3b5db664	0.0033830637
15	0x3c3bc5eb	0.011460762
16	0xbc27099e	-0.010195164
17	0xbc354da1	-0.011065871
18	0xbc376024	-0.011192355
19	0xbbf701ce	-0.007538057
20	0xbbed41fa	-0.007240531
21	0xbc4092dc	-0.011753764
22	0xbbda88a1	-0.0066691195
23	0xbc09519c	-0.008381274
24	0xbc0789ad	-0.008272571
25	0xbc27bce4	-0.010237906
26	0xbbdfbdc1	-0.0068280404
27	0xbc13a588	-0.009011634
28	0xbbe6884a	-0.00703529
29	0xbc06cc32	-0.008227395
30	0xbba2da88	-0.0049698986
31	0xbc0280e1	-0.007965297
32	0x3bf400be	0.0074463775
33	0x3c269c21	0.01016906
34	0x3c28a5e9	0.010293462
35	0x3c0aae52	0.008464413
36	0x3c46a258	0.012123667
37	0x3c2ee545	0.010674779
38	0x3c1c9a2b	0.009558241
39	0x3c3b3f2f	0.011428638
40	0x3c17aaa6	0.009256994
41	0x3c08aa83	0.008341434
42	0x3c2aceec	0.010425311
43	0x3c3bd201	0.011463643
44	0x3baa3ff0	0.00519561
45	0x3c391940	0.011297524
46	0x3b8ea544	0.0043531973
47	0x3c1d18d9	0.009588444
48	0xbc288d93	-0.01028766
49	0xbc25e4f9	-0.010125392
50	0xbc367ce1	-0.011138172
51	0xbbbfea0d	-0.0058567584
52	0xbc32b300	-0.010906935
53	0xbc3a5524	-0.011372838
54	0xbc1a8be3	-0.009432766
55	0xbbf42147	-0.007450256
56	0xbc0a2573	-0.00843178
57	0xbbed4137	-0.00724044
58	0xbc281f57	-0.010261378
59	0xbbe8a3f8	-0.0070996247
60	0xbb6ab12a	-0.0035811164
61	0xbc0b0838	-0.008485846
62	0xbbb38385	-0.005478325
63	0xbc04248d	-0.008065355
64	0x3c03875c	0.008027878
65	0x3beedb96	0.0072893603
66	0x3c36f9a2	0.011167916
67	0x3bc64f04	0.0060519
68	0x3c2adf6e	0.010429246
69	0x3c40f8d2	0.011778073
70	0x3bdf505b	0.006814999
71	0x3bd01ef7	0.0063513475
72	0x3baecd8b	0.005334561
73	0x3bb6dd1a	0.0055805566
74	0x3bf383f4	0.0074315015
75	0x3c10dbdb	0.00884148
76	0x3aa8d15b	0.0012879776
77	0x3bc0b5ac	0.005881032
78	0xba09603f	-0.0005240477
79	0x3c0f12b9	0.008732491
80	0xbc2beb45	-0.010493104
81	0xbc12bcf1	-0.00895618
82	0xbc156f13	-0.00912072
83	0xbc3c87fc	-0.011507031
84	0xbc34eae5	-0.011042331
85	0xbc496897	-0.012293003
86	0xbbf29536	-0.0074030412
87	0xbbd94412	-0.006630429
88	0xbbf7a7a9	-0.0075578284
89	0xbc0c5930	-0.008566186
90	0xbbf8542b	-0.007578393
91	0xbc2a8b4b	-0.010409187
92	0xbbbb15e5	-0.005709397
93	0xbc21dc44	-0.009879176
94	0xbbb04380	-0.0053791404
95	0xbc1914af	-0.00934331
96	0x3c2a4f40	0.010394871
97	0x3c11b2a7	0.008892692
98	0x3c3c7495	0.011502405
99	0x3c2f18f3	0.010687101
100	0x3c01e5a1	0.007928283
101	0x3c2e9a31	0.010656879
102	0x3c29b56a	0.010358194
103	0x3be1a57f	0.0068861837
104	0x3c024fd4	0.007953603
105	0x3c032899	0.008005285
106	0x3c0e2e07	0.008677966
107	0x3c06ea45	0.008234565
108	0x3b33675b	0.0027374837
109	0x3c1b3815	0.00947382
110	0x3b71e3aa	0.003690938
111	0x3c418621	0.011811764
112	0x3c2432e9	0.010021904
113	0x3c3e626d	0.011620146
114	0x3bf2633a	0.0073970826
115	0x3c07bcc2	0.008284749
116	0x3c24bce5	0.010054802
117	0x3c0e0ecd	0.008670521
118	0x3be834a3	0.007086353
119	0x3bf07403	0.0073380484
120	0x3c104f7a	0.008808011
121	0x3c2ef07a	0.010677451
122	0x3c0cefde	0.008602111
123	0x3bdd10f9	0.006746408
124	0x3b7508ed	0.0037389353
125	0x3c12e758	0.008966289
126	0x3b196114	0.002340381
127	0x3c1c0cd3	0.009524542
128	0x3c03283a	0.008005196
129	0x3c07b7da	0.00828358
130	0x3c07c00c	0.008285534
131	0x3c30eace	0.010798169
132	0x3c3fe10a	0.011711368
133	0x3c220377	0.009888521
134	0x3c3499fb	0.01102304
135	0x3c275186	0.010212308
136	0x3c37d74d	0.011220765
137	0x3c022c9e	0.007945208
138	0x3c4356a0	0.0119225085
139	0x3befc74e	0.00731746
140	0x3b8af932	0.004241132
141	0x3c3e8d56	0.011630377
142	0x3ba06a1d	0.004895462
143	0x3c488d50	0.012240723
144	0x3c262092	0.010139601
145	0x3c137260	0.008999437
146	0x3c409a8a	0.011755595
147	0x3c0b49b9	0.008501464
148	0x3c4abd3e	0.01237422
149	0x3c0e485c	0.008684244
150	0x3c190036	0.009338429
151	0x3c3ab3d9	0.011395418
152	0x3c39e7a3	0.01134673
153	0x3c281a75	0.010260214
154	0x3c391b00	0.011297941
155	0x3c196e6e	0.009364707
156	0x3bf538de	0.0074835857
157	0x3c50efd8	0.012752496
158	0x3ba4e7ec	0.00503253
159	0x3c388f3a	0.011264617
160	0x3c01ca92	0.007921832
161	0x3bf3eb7a	0.0074438425
162	0x3c13b89b	0.009016181
163	0x3c49001c	0.0122680925
164	0x3c4464cc	0.0119869225
165	0x3c35a7be	0.011087356
166	0x3bfa0f2a	0.007631202
167	0x3bee3172	0.007269078
168	0x3c197f24	0.009368692
169	0x3c26db49	0.010184118
170	0x3c2c3ae7	0.01051209
171	0x3bf4e63c	0.007473735
172	0x3ba42624	0.0050094295
173	0x3c29bd30	0.010360047
174	0x3abc0d17	0.0014347163
175	0x3c3a4cf0	0.011370882
176	0xbc203b27	-0.009779728
177	0xbc31bcb6	-0.010848215
178	0xbc22595d	-0.009909001
179	0xbc1f2794	-0.009714026
180	0xbbd6cd68	-0.006555248
181	0xbc1c7c34	-0.009551097
182	0xbc0d6c43	-0.008631769
183	0xbbc6c151	-0.0060655256
184	0xbbaf9188	-0.005357925
185	0xbc1b409d	-0.009475854
186	0xbbc2ffa5	-0.0059508854
187	0xbc17bf76	-0.009261956
188	0xbbc19488	-0.005907599
189	0xbbb452d8	-0.00550304
190	0xbb8e994b	-0.00435177
191	0xbc0fca08	-0.008776195
192	0x3c25174a	0.010076353
193	0x3c37e031	0.011222885
194	0x3c4e763a	0.01260143
195	0x3c053b5e	0.00813183
196	0x3c3d47b6	0.011552742
197	0x3c0ff3a7	0.008786119
198	0x3c1da9df	0.00962302
199	0x3c3a1bc8	0.011359163
200	0x3bffd802	0.0078077326
201	0x3c45d589	0.0120748365
202	0x3c00434b	0.007828544
203	0x3bf488e8	0.0074626096
204	0x3ba3c795	0.0049981573
205	0x3c065f62	0.008201452
206	0x3bcf3270	0.0063231513
207	0x3c234e0d	0.009967339
208	0x3c1e60fe	0.009666679
209	0x3c272147	0.010200805
210	0x3c2678ef	0.010160669
211	0x3be6debb	0.0070455945
212	0x3c299d4a	0.010352442
213	0x3c05e819	0.008173012
214	0x3c26925b	0.01016673
215	0x3c344c2a	0.011004487
216	0x3c11150b	0.008855115
217	0x3c31501c	0.010822322
218	0x3c06738c	0.008206259
219	0x3c06da59	0.008230769
220	0x3bf7ca94	0.007561991
221	0x3c2e9d52	0.010657625
222	0x3b26d12e	0.002545427
223	0x3bdd5a56	0.0067551536
224	0x3c2c0fce	0.010501815
225	0x3c402ec9	0.011729904
226	0x3c275c27	0.010214842
227	0x3c22f99e	0.009947209
228	0x3c483e3f	0.012221872
229	0x3c0caedd	0.0085866125
230	0x3c3647ba	0.011125499
231	0x3bf2ad25	0.0074058943
232	0x3c39bedc	0.011337008
233	0x3c1c6065	0.009544467
234	0x3c0e0b11	0.008669631
235	0x3bf33164	0.0074216593
236	0x3b59dbdd	0.003324262
237	0x3c37d894	0.01122107
238	0x3b04a1b9	0.0020237996
239	0x3c2a6ab2	0.010401415
240	0x3c3f8b32	0.011690902
241	0x3c4ea47d	0.012612459
242	0x3c361929	0.011114397
243	0x3c56ae4b	0.013103078
244	0x3c4447fd	0.011980054
245	0x3bf147b4	0.007363284
246	0x3c2d40e5	0.010574554
247	0x3bfdc0a1	0.0077439104
248	0x3c04ba29	0.008101025
249	0x3c06b0ca	0.008220861
250	0x3bfa76ff	0.00764358
251	0x3c45b285	0.012066488
252	0x3c139946	0.009008711
253	0x3beecffc	0.0072879773
254	0x3b904f56	0.004403989
255	0x3c1789dd	0.009249178

fc_1.bias f4 [256]
0	0x3c1352d0	0.008991912
1	0xbbd176c7	-0.006392333
2	0x3c3b084a	0.0114155505
3	0xbc1178cb	-0.008878897
4	0x3c1824a5	0.0092860805
5	0xbc217935	-0.009855558
6	0x3c27e99e	0.01024857
7	0x3c4bdfb8	0.012443475
8	0x3c1771b5	0.009243418
9	0x3c1ad6e5	0.009450649
10	0x3bfa4adf	0.00763832
11	0xbc19a4a7	-0.009377635
12	0x3befc284	0.0073168892
13	0x3be318f3	0.0069304644
14	0x3c45d78a	0.012075314
15	0x3c31cccd	0.010852051
16	0x3c25741c	0.010098483
17	0xbc0edb2b	-0.008719246
18	0x3c04999f	0.008093267
19	0x3c3a5827	0.011373556
20	0xbc1e53d7	-0.009663544
21	0x3c44dbc9	0.0120152915
22	0x3c4a61a9	0.012352386
23	0x3c1dff0c	0.009643327
24	0x3c458341	0.012055219
25	0x3be76336	0.0070613874
26	0x3be3bf13	0.006950268
27	0x3c49736d	0.012295586
28	0x3c19f617	0.009397051
29	0x3c006b10	0.007838026
30	0xbc3d25c3	-0.011544648
31	0x3c313112	0.010814922
32	0x3c005043	0.007831636
33	0x3c018258	0.0079046115
34	0x3bf9dfc3	0.0076255514
35	0x3c12294a	0.008920977
36	0xbc0c2c2a	-0.008555451
37	0xbc47527a	-0.01216566
38	0x3c3def92	0.011592763
39	0x3c0b9b47	0.008520908
40	0x3c0f3e46	0.0087428745
41	0xbbc7ddca	-0.0060994374
42	0x3c3101cb	0.01080365
43	0x3c39e1b7	0.0113453185
44	0x3c0942f0	0.008377776
45	0x3c46e913	0.01214053
46	0x3c48b07a	0.012249107
47	0xbc4a6b6c	-0.012354713
48	0xbc0625d7	-0.008187733
49	0x3c3e6e57	0.011622987
50	0x3c2074e4	0.009793494
51	0xbbf666c3	-0.0075195744
52	0xbc17d963	-0.009268138
53	0x3c019fc3	0.007911625
54	0xbc410e1d	-0.01178315
55	0xbc21ad73	-0.009868014
56	0xbbf91638	-0.0076015256
57	0x3bf9398c	0.007605737
58	0x3c3411d4	0.010990579
59	0xbc0646fb	-0.008195634
60	0x3c311f44	0.010810677
61	0xbc00ac90	-0.007853642
62	0xbbea2bb9	-0.0071463254
63	0xbc4a2ab6	-0.012339285
64	0xbc10af08	-0.008830793
65	0x3bc37e16	0.0059659583
66	0x3c434744	0.0119188465
67	0xbc2207af	-0.009889527
68	0x3bf935b6	0.00760528
69	0x3bfbcccf	0.007684327
70	0x3bfebd12	0.007774004
71	0x3c23ccb8	0.009997539
72	0x3c38a46d	0.011269671
73	0x3c0a8a01	0.008455754
74	0xbc08c7cf	-0.008348419
75	0xbc15441b	-0.009110476
76	0x3bfeb640	0.0077731907
77	0x3c165fd3	0.00917812
78	0x3c027924	0.0079634525
79	0xbc047250	-0.008083895
80	0x3c37afdd	0.011211363
81	0x3bebba1a	0.007193816
82	0x3bf023a7	0.007328469
83	0x3c17db4b	0.009268592
84	0x3c04392f	0.008070274
85	0xbc46419d	-0.012100604
86	0x3c1b2e29	0.009471455
87	0x3c3894aa	0.011265913
88	0xbc3492fc	-0.011021372
89	0x3c3ca45c	0.011513796
90	0x3c022ab0	0.007944748
91	0x3bfea08f	0.007770605
92	0x3c30ca3d	0.010790405
93	0x3c26f2e7	0.010189748
94	0x3c25b552	0.010114031
95	0xbc35dbb9	-0.011099749
96	0xbc282eca	-0.010265062
97	0x3bec893c	0.007218508
98	0xbc0efba7	-0.008726991
99	0x3c4107ac	0.011781614
100	0x3bf25757	0.0073956656
101	0x3c24caed	0.010058147
102	0x3c52249d	0.012826112
103	0x3c51d59c	0.012807276
104	0x3c3513ca	0.011052081
105	0x3c058e9e	0.008151678
106	0x3c1999b1	0.009375022
107	0x3c057224	0.008144889
108	0x3c1ec785	0.009691124
109	0x3bd7e217	0.0065882313
110	0xbbf01e84	-0.0073278565
111	0xbc3da672	-0.011575328
112	0x3c10eaf9	0.008845084
113	0x3c21fc87	0.009886867
114	0x3bff843d	0.0077977465
115	0x3c1315db	0.008977379
116	0x3c415082	0.01179898
117	0xbc349f35	-0.011024286
118	0x3c456a5d	0.012049285
119	0x3c35f5e3	0.011105987
120	0x3c37772a	0.0111978445
121	0xbc40d236	-0.011768868
122	0x3c1b4b56	0.009478411
123	0x3c48a67e	0.012246726
124	0x3c415384	0.011799697
125	0xbc2ec061	-0.010665984
126	0x3c0336dc	0.008008685
127	0x3c45aa83	0.012064579
128	0xbc309e31	-0.010779903
129	0x3c14906b	0.009067635
130	0x3c027110	0.0079615265
131	0x3c187a92	0.009306567
132	0x3c329ac8	0.010901161
133	0x3c2f68f1	0.010706172
134	0x3c18660a	0.009301672
135	0x3c3ae153	0.011406261
136	0x3c41d288	0.01182998
137	0x3c05fe79	0.008178347
138	0xbc1e2e89	-0.0096546495
139	0xbc02101e	-0.007938413
140	0x3c29d4e4	0.0103656985
141	0x3c479fea	0.012184123
142	0xbc3a124d	-0.011356902
143	0x3c3d4f0c	0.011554491
144	0xbc2980f9	-0.010345691
145	0xbc1509a0	-0.009096533
146	0x3c31bf2b	0.010848801
147	0xbbee7e7a	-0.007278261
148	0x3be08be5	0.006852614
149	0x3c068abc	0.008211788
150	0x3c21249b	0.009835388
151	0x3befd453	0.007319012
152	0x3be706a8	0.007050354
153	0xbc052364	-0.008126114
154	0x3c391d7f	0.011298536
155	0x3c4905cb	0.012269448
156	0xbbf98667	-0.007614899
157	0xbc0e755b	-0.008694972
158	0x3c0cc50a	0.0085919
159	0x3c194c12	0.0093565155
160	0x3c1a7c47	0.009429044
161	0xbbe62638	-0.007023599
162	0xbc2a367b	-0.010388966
163	0xbc400326	-0.011719501
164	0xbc3a256a	-0.011361459
165	0x3c46ec80	0.012141347
166	0x3c2a9148	0.010410614
167	0x3bfeffdd	0.007781966
168	0xbbcf5c1f	-0.0063281204
169	0x3c1b7e29	0.009490528
170	0x3c1ed309	0.009693869
171	0x3c512f9f	0.012767701
172	0x3c1f99ed	0.009741289
173	0x3c42f052	0.011898117
174	0xbc3991ec	-0.011326294
175	0x3c48dc64	0.0122595765
176	0xbc31fced	-0.010863525
177	0x3c4b2163	0.012398097
178	0x3c0fcdd9	0.008777105
179	0x3c1e5c89	0.009665617
180	0x3c00d806	0.007864004
181	0x3c298e65	0.010348891
182	0x3c42c72d	0.0118883075
183	0x3c0e62f3	0.0086905835
184	0x3c11293e	0.008859931
185	0xbc34dcea	-0.011038998
186	0x3c2b6df8	0.01046323
187	0x3c542197	0.012947462
188	0x3c43987f	0.011938213
189	0x3bb5d112	0.0055486048
190	0x3c33890c	0.0109579675
191	0x3c4c261a	0.012460256
192	0xbc004f6f	-0.007831438
193	0x3c29d832	0.010366486
194	0x3c0d339d	0.008618263
195	0x3c14880b	0.009065638
196	0x3c11c2ec	0.008896571
197	0x3c0d9b67	0.008643008
198	0x3c4dcc44	0.012560908
199	0x3c009c5a	0.007849777
200	0x3c44f38b	0.012020956
201	0x3c2d1ace	0.010565473
202	0x3c3803c9	0.011231371
203	0xbc351685	-0.011052732
204	0x3c3e12ef	0.011601194
205	0x3c205287	0.009785301
206	0x3c264f95	0.01015081
207	0x3c367ff3	0.011138904
208	0x3bdade69	0.0066793454
209	0x3c450c05	0.012026791
210	0xbc279da4	-0.010230456
211	0x3bf92561	0.007603333
212	0x3bfc31e1	0.0076963757
213	0x3c184524	0.009293828
214	0x3bd74792	0.006569811
215	0x3c03d806	0.0080471095
216	0x3c0ca91e	0.008585243
217	0x3c259862	0.010107132
218	0x3c46ae12	0.0121264625
219	0xbc26704f	-0.010158612
220	0xbc13119c	-0.008976366
221	0x3c22d091	0.009937421
222	0x3c55d705	0.013051753
223	0x3c392ac5	0.011301701
224	0xbbe8186b	-0.007082989
225	0xbc21d633	-0.009877729
226	0xbc31f4b3	-0.0108615635
227	0x3c0bfbe7	0.008543945
228	0xbc06661b	-0.008203055
229	0xbc13aefe	-0.009013889
230	0x3c380aaa	0.011233011
231	0xbc44c8ef	-0.012010797
232	0x3c1c173d	0.009527025
233	0xbbf158b0	-0.0073653087
234	0xbc1b3ed5	-0.00947543
235	0xbc0d95bd	-0.008641657
236	0x3c05786e	0.008146388
237	0x3c0046be	0.007829366
238	0x3c32d2bf	0.010914504
239	0x3c21e9d4	0.009882409
240	0xbc217d78	-0.009856574
241	0x3c2fbfcb	0.010726879
242	0xbc3310d4	-0.010929305
243	0xbc2a9c44	-0.010413233
244	0xbc2e55f3	-0.010640609
245	0x3c39fa82	0.01135123
246	0x3c102b60	0.008799404
247	0x3c180775	0.009279122
248	0x3bf5ab76	0.0074972464
249	0x3c4c49db	0.01246878
250	0xbc2eb762	-0.010663839
251	0x3c0b739f	0.008511453
252	0x3c3bd37d	0.011463997
253	0x3c35441a	0.0110636
254	0xbc07570d	-0.008260501
255	0xbc34cb86	-0.011034852

fc_2.weight f4 [256, 256]
0	0xbbe33289	-0.0069335145
1	0x3b8a5ecf	0.004222728
2	0xbc27f687	-0.010251648
3	0x3b44def1	0.003004011
4	0xbc0acf17	-0.008472226
5	0x3ba56bf1	0.005048268
6	0xbc1c006d	-0.009521586
7	0xbc2495bd	-0.010045466
8	0xbc124eab	-0.008929889
9	0xbbe8b7aa	-0.0071019726
10	0xbc0e8ce2	-0.008700581
11	0x3a9b58bf	0.001185201
12	0xbc0f5a2d	-0.008749527
13	0xbc1700a3	-0.00921646
14	0xbbc69f01	-0.006061435
15	0xbc1eece8	-0.009700038
16	0xbc23de08	-0.010001667
17	0x3b66f41f	0.0035240722
18	0xbc1fd97c	-0.009756442
19	0xbc06e286	-0.008232718
20	0x3be06b1b	0.0068487055
21	0xbc3e7471	-0.0116244415
22	0xbc33841f	-0.010956793
23	0xbbdb9ee8	-0.0067022927
24	0xbc03a0e3	-0.008033964
25	0xbc2c8910	-0.010530725
26	0xbbcab12a	-0.0061856704
27	0xbbcbb043	-0.0062160804
28	0xbc351ec8	-0.011054702
29	0xbc2e53e8	-0.010640122
30	0x3b416bbc	0.0029513678
31	0xbc3a6a23	-0.011377844
32	0xbc28f724	-0.010312829
33	0xbbd3eb9b	-0.0064672953
34	0xbbe950a7	-0.00712021
35	0xbbeb1683	-0.0071743145
36	0x3b5c0e34	0.0033577802
37	0x3bbb7e15	0.0057218173
38	0xbbe2770d	-0.0069111646
39	0xbc2a3061	-0.010387511
40	0xbbbda10c	-0.0057870205
41	0x3b949836	0.0045347465
42	0xbbee3104	-0.0072690267
43	0xbbdd7a7a	-0.006758985
44	0xbc10ad9e	-0.008830456
45	0xbc02acf6	-0.007975807
46	0xbc1990bf	-0.009372889
47	0x3bed09bf	0.007233828
48	0x3b3b972c	0.002862404
49	0xbc2fa0e7	-0.010719514
50	0xbbca490f	-0.00617326
51	0x3bba3cad	0.0056835026
52	0x3bad5273	0.0052893697
53	0xbbe3d9c0	-0.006953448
54	0x3b96f60f	0.004606969
55	0x3b686b67	0.0035464407
56	0x3b48c89c	0.003063715
57	0xbc0de306	-0.008660084
58	0xbc2fde6f	-0.010734185
59	0x3b1aa9f5	0.0023599837
60	0xbbf61e60	-0.007510945
61	0x3b770349	0.0037691167
62	0x3bb79d5a	0.0056034746
63	0x3abe0037	0.0014495914
64	0x3bd5da56	0.006526272
65	0xbc09ad00	-0.008403063
66	0xbbe512a5	-0.006990748
67	0x3b2d5160	0.0026446208
68	0xbbb841eb	-0.0056230924
69	0xbbbe686f	-0.0058107893
70	0xbc277f70	-0.010223255
71	0xbc2681e8	-0.010162808
72	0xbbead77d	-0.0071668015
73	0xbbdef359	-0.0068039116
74	0x3b975f7e	0.004619538
75	0x3bbc8ec3	0.005754323
76	0xbc2f2deb	-0.0106921
77	0xbbd881b6	-0.0066072596
78	0xbbf8c779	-0.0075921384
79	0x3b916fc9	0.0044383747
80	0xbc24260e	-0.010018839
81	0xbc25f15a	-0.0101283435
82	0xbc1fff09	-0.009765395
83	0xbc22a2ab	-0.009926478
84	0xbc00f64e	-0.007871224
85	0x3b48e52f	0.0030654182
86	0xbbce99e8	-0.006304968
87	0xbc0ee387	-0.008721239
88	0x3af5ca70	0.0018752348
89	0xbc260c0f	-0.010134711
90	0xbc1ed049	-0.009693214
91	0xbc3a55ed	-0.011373025
92	0xbc07f088	-0.008297093
93	0xbc198359	-0.009369695
94	0xbc2a7d66	-0.010405874
95	0x3b38a296	0.002817308
96	0x3b32c5ba	0.0027278499
97	0xbc01d70a	-0.007924804
98	0x3af0398e	0.00183277
99	0xbc0b56ac	-0.008504551
100	0xbbc6ae1d	-0.0060632364
101	0xbc1231df	-0.008923023
102	0xbbc42a01	-0.0059864526
103	0xbbd6f4d0	-0.0065599456
104	0xbc371897	-0.011175296
105	0xbbe21d46	-0.0069004623
106	0xbc23306e	-0.009960277
107	0xbbf9bfdf	-0.00762175
108	0xbc05288e	-0.008127345
109	0xbbeb89ac	-0.0071880426
110	0x3b165b74	0.0022942694
111	0x3b76fa4d	0.0037685812
112	0xbc2a9211	-0.0104108015
113	0xbc1828ab	-0.00928704
114	0xbc2abb33	-0.010420608
115	0xbbe90303	-0.0071109547
116	0xbbd42a73	-0.006474787
117	0x3b98df2a	0.004665275
118	0xbc2d0438	-0.010560088
119	0xbc2f9095	-0.010715623
120	0xbbefbad4	-0.007315973
121	0x3bd09bfb	0.0063662506
122	0xbc04f075	-0.00811397
123	0xbbeff88b	-0.00732333
124	0xbc36c8ac	-0.011156242
125	0x3b3a2872	0.0028405455
126	0xbc2b7b83	-0.010466459
127	0xbc3bbfb4	-0.01145928
128	0x3b6152de	0.0034381668
129	0xbc2ef90e	-0.010679496
130	0xbc1f94f8	-0.009740107
131	0xbc22c60b	-0.009934912
132	0xbbc0c30d	-0.005882627
133	0xbbd68a58	-0.0065472536
134	0xbc09061a	-0.008363271
135	0xbc3732cd	-0.011181545
136	0xbc1bcd0d	-0.009509337
137	0xbc3e332e	-0.011608882
138	0x3b50c0bb	0.0031853158
139	0x3b74f493	0.0037377223
140	0xbc1212a0	-0.008915573
141	0xbbd8b8ff	-0.00661385
142	0x3a94c7b3	0.0011351019
143	0xbc206957	-0.00979074
144	0x3badd2c4	0.0053046662
145	0x3bc79ae2	0.0060914615
146	0xbc299c3a	-0.010352189
147	0x3b553bce	0.0032536867
148	0xbbc189d7	-0.0059063244
149	0xbbf3e897	-0.0074434984
150	0xbc17179c	-0.0092219375
151	0xbc2f7e0e	-0.010711206
152	0xbc23addc	-0.009990182
153	0x3b60c3d1	0.0034296403
154	0xbc23b409	-0.009991654
155	0xbbdc9efc	-0.0067328196
156	0x3b271bee	0.0025498825
157	0x3bdceb96	0.006741951
158	0xbbff23a3	-0.0077862306
159	0xbc110485	-0.008851175
160	0xbc213ed2	-0.009841638
161	0x3bcbed77	0.0062233764
162	0x3be2a09f	0.00691612
163	0x3bdf57b3	0.0068158745
164	0x3b938832	0.0045023197
165	0xbc09e09d	-0.008415368
166	0xbc155d17	-0.009116433
167	0xbbedfffd	-0.007263182
168	0x3b847653	0.0040424257
169	0xbc1d9de8	-0.009620167
170	0xbbd2b992	-0.006430813
171	0xbc37cf4a	-0.011218855
172	0xbbcc526b	-0.006235411
173	0xbc071333	-0.008244324
174	0x3b8abc80	0.0042338967
175	0xbbd3e2bb	-0.0064662374
176	0x3b8c29ef	0.00427746
177	0xbbe058d2	-0.0068465257
178	0xbc181838	-0.009283118
179	0xbc14b625	-0.00907663
180	0xbc1d9492	-0.009617941
181	0xbc1b9b39	-0.009497457
182	0xbbc0eb3a	-0.005887416
183	0xbbbf7d46	-0.005843791
184	0xbbc9c333	-0.0061573028
185	0x3bbbac61	0.0057273363
186	0xbc1ff878	-0.009763829
187	0xbc189b1b	-0.009314324
188	0xbc36e4a9	-0.011162915
189	0xbc2126f0	-0.009835944
190	0xbc1a49f9	-0.0094170505
191	0xbc2ab2f9	-0.010418647
192	0x3b701eb4	0.0036639394
193	0xbc1f3ed4	-0.009719569
194	0xbbd861b5	-0.0066034445
195	0xbc1bf077	-0.0095177805
196	0xbbd947fd	-0.006630896
197	0xbbd9d5e1	-0.006647811
198	0xbbf0dbb8	-0.0073504113
199	0xbbb0b640	-0.0053928196
200	0xbbc74528	-0.006081242
201	0xbc3a7b0f	-0.0113818785
202	0xbbf3a655	-0.0074356
203	0x3bcf2959	0.0063220677
204	0xbc07540a	-0.008259783
205	0xbc2be3ec	-0.0104913525
206	0xbc3a2392	-0.01136102
207	0xbbdaefc5	-0.006681415
208	0xbbca24e0	-0.0061689466
209	0xbbc6698e	-0.0060550636
210	0x3ba40946	0.0050059883
211	0xbbc6bf1d	-0.006065263
212	0xbc0edaaa	-0.008719126
213	0xbc1b973f	-0.009496509
214	0xbc25f42d	-0.010129017
215	0xbc1d3b40	-0.009596646
216	0xbc1db46b	-0.0096255345
217	0xbbe2d063	-0.0069218143
218	0xbc006811	-0.007837311
219	0x3b3e602b	0.002904902
220	0x3b1336d7	0.0022463107
221	0xbbf7e86a	-0.0075655477
222	0xbc197b2c	-0.009367745
223	0xbbd86806	-0.0066041974
224	0x3b103ae2	0.0022007753
225	0x3acdcfe9	0.0015702221
226	0x3bbb9d5a	0.005725545
227	0xbc168aaf	-0.009188338
228	0x3ba05332	0.00489273
229	0x3b8e2c8e	0.0043388074
230	0xbbeb882c	-0.007187864
231	0x3af554d2	0.0018717295
232	0xbc07a755	-0.008279641
233	0x3a76b973	0.00094117894
234	0x3b400e82	0.0029305522
235	0x3ae3f532	0.00173918
236	0xbc188bf9	-0.009310716
237	0xbc0b411e	-0.008499412
238	0xbc0dcb36	-0.008654406
239	0xbc2bd36a	-0.010487417
240	0x3ba22aac	0.0049489345
241	0xbbcfb4cc	-0.0063386913
242	0x3b0e23f5	0.0021688913
243	0x3bd8f172	0.0066205794
244	0x3bd5099a	0.0065013887
245	0xbbdb7d7d	-0.006698309
246	0xbc1e29f9	-0.009653562
247	0xbbcb678d	-0.0062074126
248	0xbc1a977c	-0.009435531
249	0xbc02a58d	-0.007974041
250	0x3b9f1ff0	0.004856102
251	0xbbf9767c	-0.0076130014
252	0xbc1bc4c8	-0.0095073655
253	0xbc1e936f	-0.009678706
254	0x3bb94f98	0.0056552403
255	0x3b44438f	0.0029947495

fc_2.bias f4 [256]
0	0xbc2f2ea5	-0.010692273
1	0x3c4017de	0.01172444
2	0x3c17a9b1	0.009256766
3	0x3c26e964	0.010187481
4	0x3c457b6e	0.012053354
5	0xbc38c48c	-0.011277329
6	0x3c2c50a4	0.010517273
7	0x3c059617	0.00815346
8	0x3c38d46b	0.011281113
9	0x3c1db969	0.009626725
10	0x3c1ea852	0.009683685
11	0x3c1f2b26	0.009714877
12	0xbc3608b6	-0.011110475
13	0xbc398fcc	-0.011325788
14	0x3c1c64c6	0.009545511
15	0x3c089e96	0.008338591
16	0xbbd34170	-0.0064470097
17	0xbc2b0816	-0.01043894
18	0x3c26c5c2	0.010178985
19	0x3c14dd0e	0.009085907
20	0xbc3aacde	-0.011393754
21	0x3c28cd98	0.010302924
22	0xbc3d2cda	-0.011546338
23	0x3c3bc1ca	0.011459777
24	0x3c0c4428	0.008561172
25	0x3c298e63	0.010348889
26	0xbc2bd826	-0.0104885455
27	0x3c14585b	0.009054269
28	0x3c3879d9	0.0112595195
29	0xbc2f55ea	-0.010701636
30	0x3c252563	0.0100797145
31	0x3c4b169c	0.012395527
32	0xbc34f8fb	-0.01104569
33	0x3c1e56be	0.009664236
34	0xbc3b18b2	-0.011419462
35	0x3c467956	0.01211389
36	0x3c1741af	0.009231969
37	0x3c2173a0	0.009854227
38	0x3c157b02	0.009123566
39	0xbc46a959	-0.012125337
40	0xbc4bec4a	-0.012446472
41	0x3c2e88ee	0.010652764
42	0x3c170b06	0.009218937
43	0x3c447266	0.011990165
44	0xbc33a18b	-0.010963808
45	0x3c05f010	0.008174911
46	0x3c32291c	0.010874059
47	0x3c29d0ce	0.010364724
48	0x3c3462a1	0.011009843
49	0xbc338ae4	-0.010958407
50	0xbc0cfbe7	-0.00860498
51	0x3c2e75e3	0.010648224
52	0xbc30678b	-0.010766874
53	0xbc09649f	-0.008385806
54	0xbb9a7e35	-0.004714752
55	0x3c29b32d	0.01035766
56	0x3c28122a	0.010258237
57	0xbc161ccf	-0.009162142
58	0x3c0543b5	0.008133818
59	0x3c15cce6	0.00914309
60	0xbc49a189	-0.012306579
61	0x3c455a9a	0.012045527
62	0x3c41b369	0.01182256
63	0x3c39829f	0.011322646
64	0xbc2f01df	-0.010681598
65	0xbbc96345	-0.006145867
66	0xbc237e89	-0.009978899
67	0x34ee9240	4.4437365e-07
68	0xbc4b7a50	-0.012419298
69	0xbc3ad84c	-0.011404108
70	0x3c4a729b	0.012356426
71	0xbc23e846	-0.010004109
72	0x3c327f8a	0.0108946655
73	0xbc23d25b	-0.009998883
74	0x3c0ec410	0.008713737
75	0xbc1e4db6	-0.009662082
76	0xbc3dd1c5	-0.0115856575
77	0x3c3572e6	0.011074757
78	0x3c06ec26	0.008235013
79	0x3c297a13	0.010344046
80	0x3c259ee9	0.010108688
81	0x3c358bfc	0.011080738
82	0x3c378f3f	0.011203586
83	0xbc321da8	-0.010871328
84	0xbc44f9e1	-0.012022466
85	0xbc33cde0	-0.010974377
86	0xbc1d6c0d	-0.009608281
87	0xbc10f5b5	-0.008847644
88	0x3c2c7067	0.010524846
89	0x3c1fb874	0.009748567
90	0x3c2fd7ed	0.010732633
91	0xbc2fe76c	-0.010736328
92	0xbc34bc9c	-0.011031296
93	0x3c38fdcc	0.011290979
94	0xbc484347	-0.012223071
95	0xbc3ba3d6	-0.011452636
96	0x3c1e02b5	0.0096442
97	0xbc1fdd64	-0.0097573735
98	0xbba13bd2	-0.004920461
99	0x3c399d7b	0.01132905
100	0xbc36f384	-0.011166457
101	0x3c31daed	0.010855419
102	0x3c1e7572	0.009671556
103	0xbc113eb8	-0.008865051
104	0xbc242e2c	-0.010020774
105	0x3c31ead5	0.010859211
106	0xbc4522c7	-0.012032217
107	0x3c31cf64	0.010852668
108	0xbad0aed7	-0.0015921247
109	0xbac4ff77	-0.0015029748
110	0x3c486f0f	0.01223351
111	0x3c4e766d	0.012601477
112	0x3c1cf857	0.009580693
113	0xbc362931	-0.011118219
114	0xbc3ae20e	-0.011406435
115	0x3bd17aa5	0.006392794
116	0xbc2113da	-0.009831393
117	0xbc339b47	-0.010962314
118	0x3c27c68f	0.010240211
119	0x3c1eb55f	0.009686797
120	0x3c425f80	0.011863589
121	0xbc47cc7f	-0.012194752
122	0x3c1c66ee	0.009546025
123	0xbc0fa4d9	-0.00876733
124	0x3c21f2fa	0.00988459
125	0x3c21b279	0.009869211
126	0xbc4028d4	-0.011728484
127	0xbc3cb1d5	-0.011517008
128	0xbc48ec62	-0.012263389
129	0xbc30a9ad	-0.010782641
130	0xbc486e73	-0.012233364
131	0xbc011d29	-0.0078804875
132	0xbc3f086e	-0.011659725
133	0x3c1611bf	0.009159504
134	0x3c3a5e2c	0.011374991
135	0xbc399e88	-0.011329301
136	0x3c338175	0.010956158
137	0xbbbfebcc	-0.0058569666
138	0xbb68c552	-0.0035518003
139	0xbc1edde0	-0.009696454
140	0xbc29e341	-0.010369123
141	0x3bf3556f	0.007425956
142	0x3c12b396	0.008953949
143	0xbaa28ce7	-0.0012401611
144	0xbbbdd8ad	-0.005793652
145	0xbc19cd6e	-0.009387357
146	0x3c36fb27	0.011168278
147	0x3c470ebc	0.012149509
148	0x3c2e42df	0.0106360605
149	0xbc07b032	-0.008281754
150	0x3c2b4fa0	0.010455996
151	0xbc31e3f3	-0.01085757
152	0x3c07ca6c	0.008288007
153	0xbc4c2505	-0.012459998
154	0x3c3d5ec0	0.011558235
155	0x3c1193bc	0.00888532
156	0x3c19e07c	0.0093919
157	0xbc3bfba7	-0.011473573
158	0xbc30b74d	-0.01078589
159	0x3c2946f8	0.010331862
160	0xbb521420	-0.0032055452
161	0x3c18ac09	0.00931836
162	0xbc32d22c	-0.010914367
163	0xbc3aa980	-0.011392951
164	0x3c41d8c4	0.011831466
165	0x3c381409	0.0112352455
166	0xbc325f2c	-0.010886949
167	0xbc33fe89	-0.010985979
168	0xbc30f7b2	-0.010801243
169	0x3c37ce81	0.011218668
170	0xbc2505cc	-0.010072183
171	0xbb1b92d3	-0.0023738637
172	0x3c0cbc64	0.008589838
173	0xbb826cd5	-0.003980259
174	0xbc2b2b74	-0.010447372
175	0xbc2095bd	-0.009801325
176	0xbc44015d	-0.011963216
177	0xbc3cdddf	-0.011527508
178	0x3c23a0f1	0.009987102
179	0xbc47054a	-0.012147257
180	0xbc3ae47f	-0.011407017
181	0x3c2b04ce	0.010438157
182	0x3c399093	0.011325973
183	0xbc245165	-0.010029172
184	0xbbbf8011	-0.005844124
185	0x3c2f0630	0.010682628
186	0xbc1b294e	-0.009470297
187	0xbc26b0bf	-0.0101739755
188	0x3c255459	0.010090911
189	0x3c1c667a	0.009545917
190	0xbb45fbfd	-0.0030210011
191	0xbb202105	-0.0024433744
192	0xbbf92ba2	-0.0076040784
193	0x3c3f9e7e	0.011695502
194	0x3c4513c7	0.012028641
195	0x3c2ed99f	0.010672002
196	0x3c31b904	0.010847334
197	0xbc1dabb3	-0.009623456
198	0xbc21702e	-0.009853406
199	0xbbbeb450	-0.005819835
200	0xbc433435	-0.011914303
201	0xbc469a49	-0.012121745
202	0xbc1854f0	-0.009297594
203	0xbc3fe004	-0.011711124
204	0x3c3cfff3	0.011535632
205	0xbc3e73cd	-0.011624289
206	0x3c3e55d8	0.011617146
207	0x3c25948a	0.010106215
208	0x3c3cfb86	0.011534577
209	0xbc3b6fbe	-0.011440216
210	0xbc2fef19	-0.010738158
211	0xbb8fe481	-0.0043912535
212	0xbc3ecc97	-0.011645458
213	0x3c24e0da	0.010063374
214	0xbc4671a5	-0.012112056
215	0x3c3b5e24	0.011436019
216	0x3c308a5f	0.010775178
217	0x3c30a1ab	0.010780732
218	0x3c479a8f	0.012182846
219	0x38289839	4.019609e-05
220	0x3c39c255	0.011337836
221	0xbc48e444	-0.012261454
222	0xbc32831d	-0.010895518
223	0xbc47e68a	-0.012200961
224	0x3c182012	0.00928499
225	0x3c1113c5	0.008854811
226	0x3c3ab915	0.011396666
227	0xbc2e2ebf	-0.010631262
228	0xbc14613b	-0.009056385
229	0x3c3be2bf	0.011467635
230	0xbc4033c0	-0.011731088
231	0x3c3ba6a7	0.011453307
232	0xbc42bb56	-0.011885485
233	0x3c4b0be8	0.012392975
234	0xbc33f587	-0.010983831
235	0xbc3428f1	-0.010996089
236	0xbc23c9db	-0.009996857
237	0xbc2ff207	-0.010738856
238	0x3c0be840	0.008539259
239	0xbc2acab4	-0.010424305
240	0xbb3b9443	-0.0028622306
241	0xbc1fe0de	-0.009758202
242	0x3c3abfa5	0.011398231
243	0xbc1e342d	-0.009655994
244	0xbc3856e3	-0.011251184
245	0x3c35469e	0.0110642
246	0xbc402136	-0.011726668
247	0xbb90a29f	-0.004413917
248	0x3c25ea14	0.010126609
249	0x3c4c615d	0.012474385
250	0xbc2947b6	-0.010332039
251	0x3c261ecf	0.010139181
252	0xbc3b7fd4	-0.011444051
253	0xbc3e6133	-0.011619854
254	0x3c2ab4d4	0.010419089
255	0x3c20a048	0.009803839

fc_3.weight f4 [128, 256]
0	0x3bf98114	0.0076142643
1	0xbc151037	-0.009098104
2	0xbc198211	-0.009369389
3	0xbc180113	-0.0092776
4	0xbbde0593	-0.006775567
5	0x3bfd7b18	0.007735621
6	0xbbe3162e	-0.0069301343
7	0xbbc0b41b	-0.0058808452
8	0xbbf101c2	-0.007354946
9	0xbbd94ca5	-0.006631451
10	0xbc386abd	-0.011255917
11	0xbbcaf392	-0.0061935866
12	0x3b50df40	0.0031871349
13	0x3b5de223	0.0033856712
14	0xbc32fa68	-0.010923959
15	0xbbcbf123	-0.006223814
16	0x3ba5687a	0.005047855
17	0x3bfd0dbb	0.007722584
18	0xbbe24c1b	-0.006906045
19	0xbbf577a6	-0.00749107
20	0x3b9c7854	0.0047750864
21	0xbc245cc1	-0.01003188
22	0x3ba0760c	0.004896885
23	0xbbe214df	-0.0068994607
24	0xbbb91186	-0.005647841
25	0xbc366641	-0.011132778
26	0x3ba23b57	0.0049509215
27	0xbbe0cc3c	-0.006860284
28	0xbc044435	-0.008072902
29	0x3b6849d5	0.0035444398
30	0xbbdb79a3	-0.00669785
31	0xbbdf1811	-0.006808289
32	0x3be684c2	0.007034869
33	0xbc3b7e82	-0.011443736
34	0x3b49811f	0.0030747128
35	0xbc2bcc05	-0.010485654
36	0xbbf56490	-0.0074887946
37	0xbc1227e0	-0.00892064
38	0xbbb54939	-0.0055324105
39	0x3bce0b59	0.006287974
40	0x3be24b3c	0.0069059413
41	0xbc104f90	-0.008808032
42	0xbc1e795a	-0.009672487
43	0xbc408bc3	-0.011752072
44	0x3b26b3c8	0.0025436748
45	0xbc172c42	-0.0092268605
46	0xbc40011b	-0.011719014
47	0xbbf92f06	-0.0076044826
48	0xbbda42b1	-0.0066607823
49	0x3b9b5bdc	0.004741175
50	0x3b93f2b8	0.0045150183
51	0xbc416701	-0.011804343
52	0x3b53ada9	0.0032299554
53	0x3bead65b	0.0071666664
54	0x3bbccdf0	0.0057618544
55	0xbc364bb3	-0.011126447
56	0xbc1d9a51	-0.009619311
57	0x3b636ffe	0.0034704204
58	0xbc1a7ba3	-0.009428891
59	0xbbd65c8a	-0.0065417932
60	0x3b4b4e6c	0.0031022085
61	0xbc393a5c	-0.011305418
62	0xbc2d4786	-0.010576135
63	0xbc00c79a	-0.007860089
64	0x3b385a33	0.0028129935
65	0x3bd4fc0d	0.0064997734
66	0x3ba5e020	0.005062118
67	0x3b22bff4	0.0024833651
68	0x3ba99958	0.0051757507
69	0x3b5a37e5	0.0033297476
70	0xbbda3e53	-0.0066602617
71	0x3bdaedcb	0.006681179
72	0xbbe67c08	-0.0070338286
73	0x3ba476ff	0.0050190683
74	0xbc3d7b77	-0.011565081
75	0x3bae61aa	0.005321701
76	0x3b4e87d7	0.0031514072
77	0xbc1e7f31	-0.0096738795
78	0xbbc012a3	-0.0058615967
79	0xbc26b896	-0.010175845
80	0xbc190347	-0.00933916
81	0xbc43b6fa	-0.0119454805
82	0xbc4320b5	-0.011909653
83	0x3bbac02e	0.005699179
84	0x3b5a57c7	0.003331648
85	0x3ba0f1a1	0.004911617
86	0x3bcc7839	0.0062399176
87	0x3b233415	0.002490287
88	0xbc1bb3cf	-0.009503319
89	0xbc0f98ca	-0.008764455
90	0xbc1d254c	-0.009591412
91	0x3ba36333	0.0049861907
92	0x3bc66984	0.006055059
93	0xbc04d731	-0.008107946
94	0x3b9dc889	0.0048151654
95	0x3bf4e9e8	0.007474173
96	0xbc2b3c35	-0.010451366
97	0x3b3471a5	0.0027533558
98	0x3b4e31cf	0.0031462794
99	0xbbe1b634	-0.0068881754
100	0x3bf4aa09	0.007466559
101	0xbc18c47a	-0.009324187
102	0xbbe3978b	-0.0069455556
103	0x3b463f75	0.0030250226
104	0x3b7f4df6	0.003895638
105	0xbbc48fb5	-0.0059985765
106	0x3bfd98ff	0.007739186
107	0xbc241d34	-0.010016728
108	0x3af7fc90	0.0018919874
109	0x3ba53b89	0.0050424975
110	0xbc456e2b	-0.012050192
111	0xbbf4c477	-0.0074697095
112	0xbc10982b	-0.008825342
113	0x3b7692a1	0.0037624019
114	0x3bdd78ce	0.006758786
115	0xbba55bec	-0.0050463583
116	0x3b3ca05d	0.0028782107
117	0x3c057003	0.008144381
118	0xbc37af2a	-0.011211196
119	0xbbec5b4b	-0.0072130314
120	0xbc2cf373	-0.01055609
121	0x3b5453c0	0.0032398552
122	0xbbf84156	-0.007576148
123	0x3be7a8cc	0.0070696827
124	0xbbf0ce21	-0.007348791
125	0xbc44bca6	-0.012007868
126	0x3c0e1f15	0.008674403
127	0x3b993259	0.0046751914
128	0x3ba28a97	0.004960369
129	0x3b5140cb	0.0031929489
130	0x3b6f061e	0.0036472152
131	0x3baca4d3	0.005268672
132	0x3bc9353d	0.0061403797
133	0xbbddf16d	-0.006773165
134	0xbc3d822d	-0.011566681
135	0x3b83104d	0.003999746
136	0xbbd06722	-0.0063599506
137	0x3bc295b7	0.0059382576
138	0x3bed99d3	0.0072510033
139	0x3ba37b01	0.0049890284
140	0x3b85182f	0.004061721
141	0xbb696a02	-0.0035616164
142	0xbc217388	-0.009854205
143	0x3b859da2	0.004077629
144	0x3bb8c2b7	0.005638446
145	0x3bc8f6b3	0.0061329245
146	0xbc1040ca	-0.008804509
147	0xbc4b3718	-0.012403272
148	0xbc10f0ae	-0.008846445
149	0x3c037cdc	0.008025374
150	0xbc051e54	-0.008124907
151	0x3bb4d479	0.005518493
152	0xbbc7e087	-0.006099764
153	0x3bc128b4	0.005894745
154	0xbbec73d1	-0.007215955
155	0xbc002d72	-0.007823335
156	0xbbf66225	-0.007519024
157	0x3bc38cee	0.005967728
158	0x3c03b658	0.00803908
159	0xbc439cf3	-0.011939275
160	0x3be267b9	0.0069093374
161	0xbc317e6b	-0.010833363
162	0x3b538187	0.003227325
163	0x3b8ed006	0.0043582944
164	0xbc03228e	-0.008003844
165	0xbc154090	-0.009109631
166	0x3be4e77d	0.0069856034
167	0x3bbd1f03	0.005771519
168	0x3b55e30a	0.0032636547
169	0xbc2a080f	-0.010377898
170	0x3bc5ba4b	0.0060341707
171	0x3a81ca88	0.0009902278
172	0xbc318346	-0.010834521
173	0x3ba335f0	0.004980795
174	0x3c06bbf8	0.008223526
175	0x3ba611bf	0.0050680335
176	0x3baa22eb	0.005192151
177	0x3b95ed9f	0.004575446
178	0xbc39fb26	-0.011351382
179	0x3b58377a	0.003299205
180	0x3c06b28e	0.008221282
181	0xbc079809	-0.008275994
182	0xbc37425f	-0.011185258
183	0x3b2d6fb1	0.0026464278
184	0x3b8dfcb0	0.004333101
185	0xbc2c66db	-0.0105225695
186	0x3b8e058c	0.0043341573
187	0x3b8cdba9	0.0042986465
188	0xbc0b4ac0	-0.0085017085
189	0xbc3f50f2	-0.011677014
190	0x3b4e124a	0.0031444007
191	0x3ba00dd0	0.004884459
192	0x3b8aa7ec	0.0042314436
193	0xbc1da6e3	-0.009622308
194	0xbc2a9901	-0.010412456
195	0xbbe88704	-0.0070961732
196	0xbbed83f1	-0.0072483947
197	0x3bc54399	0.006020021
198	0x3be8fb80	0.0071100593
199	0x3b31c1eb	0.002712364
200	0x3b829162	0.003984616
201	0x3be39d8f	0.0069462727
202	0x3bf10575	0.007355387
203	0x3bf6b003	0.0075283065
204	0xbc0cfad6	-0.008604726
205	0x3bf4d438	0.0074715875
206	0xbc27a0d4	-0.0102312155
207	0xbc1d654d	-0.0096066715
208	0xbc3ea539	-0.011636072
209	0x3bb0f980	0.0054008365
210	0x3b39dd7d	0.0028360777
211	0x3c077312	0.008267181
212	0x3b6cbb25	0.003612229
213	0xbc03ec80	-0.008051991
214	0x3b78a500	0.0037940145
215	0xbc3bd024	-0.011463199
216	0xbc1c01d9	-0.009521925
217	0xbc226829	-0.009912529
218	0xbbf0019d	-0.007324411
219	0x3b281dd3	0.0025652542
220	0xbbf77f2e	-0.007553003
221	0x3bf9249e	0.007603242
222	0x3ba6a8dd	0.005086048
223	0x3bb27442	0.005445988
224	0xbbd72cbd	-0.0065666125
225	0xbc094646	-0.008378571
226	0xbc0e3b81	-0.008681179
227	0x3b9aec56	0.0047278805
228	0x3ba7bf35	0.005119229
229	0xbc1ce866	-0.0095768925
230	0x3b8924da	0.0041853013
231	0xbc39af71	-0.011333332
232	0x3be0494b	0.0068446747
233	0xbc031d39	-0.008002573
234	0x3bdf3c77	0.006812628
235	0x3becbdfe	0.0072247973
236	0x3ba141fa	0.004921195
237	0x3bcd8e0f	0.006273038
238	0xbb960a03	-0.00457883
239	0x3c080e30	0.008304164
240	0x3bc93d74	0.006141359
241	0x3bd42f76	0.0064753843
242	0xbc3fc6a9	-0.011705079
243	0x3be7db29	0.0070756865
244	0x3ba70046	0.005096468
245	0xbc105754	-0.008809883
246	0x3be165d8	0.006878596
247	0x3bdaaffe	0.006673812
248	0xbc202b35	-0.009775926
249	0xbc2c8274	-0.010529149
250	0x3b9bb05a	0.0047512474
251	0xbc3db2b2	-0.011578249
252	0x3bcf4597	0.0063254344
253	0x3c0d17e9	0.008611658
254	0xbc1cc694	-0.009568829
255	0xbbf15255	-0.007364551

fc_3.bias f4 [128]
0	0xbc265217	-0.010151408
1	0x3bc2d4e8	0.0059457906
2	0x3bda7198	0.0066663735
3	0x3c297974	0.010343898
4	0xbc34a7f0	-0.011026368
5	0x3c3c2e94	0.011485714
6	0x3bfb34cd	0.0076662065
7	0x3c155634	0.009114791
8	0x3c1de4d6	0.009637078
9	0x3c1acd35	0.009448339
10	0xbc182c5d	-0.009287921
11	0x3c21f85a	0.009885872
12	0x3bf985bd	0.00761482
13	0x3c28c5e8	0.010301091
14	0x3c2fcca8	0.010729946
15	0x3a06b223	0.0005138239
16	0xbc2cb171	-0.010540352
17	0x3c26bb6e	0.010176523
18	0x3c3c96d4	0.01151057
19	0xba251836	-0.0006297858
20	0xbc322cfa	-0.010874981
21	0xb9e4152c	-0.00043503323
22	0xbc2b77f2	-0.010465609
23	0x3c1bbc14	0.009505291
24	0x39944326	0.0002827879
25	0x3c063169	0.008190491
26	0x3c115be1	0.008872003
27	0x3c0e7dfc	0.008697029
28	0x3c04b864	0.008100603
29	0x3c2ec4db	0.010667051
30	0x3c1318a8	0.0089780465
31	0x3c10d74a	0.008840391
32	0xbc1e4eb3	-0.009662318
33	0xbc17a094	-0.009254593
34	0x3bed8865	0.0072489255
35	0xbc3e71be	-0.011623798
36	0xbc38db27	-0.011282719
37	0x3c1b2125	0.0094683515
38	0x3bd71aac	0.006564459
39	0xbc0bad48	-0.0085252
40	0x3c11ee02	0.008906843
41	0x3c31f032	0.01086049
42	0xba74a791	-0.00093328307
43	0x3c092508	0.008370645
44	0xbc36fa27	-0.011168039
45	0xbc122e00	-0.0089221
46	0xbabe64db	-0.0014525907
47	0x3c2db20d	0.010601533
48	0x3c39bded	0.011336786
49	0x3c01ce6a	0.007922748
50	0xbc06d231	-0.0082288245
51	0x3909f8ab	0.00013157974
52	0x3c13396a	0.008985857
53	0x3c12ec45	0.008967464
54	0x3c2dab19	0.010599875
55	0x3c0619e3	0.008184883
56	0xbae5191c	-0.0017478797
57	0x3bec9559	0.007219952
58	0x3c14e196	0.009086987
59	0xbc223f61	-0.009902806
60	0x3c0c35a3	0.00855771
61	0xbc1a5216	-0.009418985
62	0xbc16d097	-0.009205005
63	0x3c2e6340	0.01064378
64	0x39a1c9e2	0.00030858727
65	0xbc14c60e	-0.009080423
66	0xbc33b1b6	-0.010967663
67	0x3c19e54e	0.009393049
68	0x3c1b4fcf	0.009479477
69	0x3c13dde5	0.009025072
70	0x3c183dd4	0.009292085
71	0x3a791665	0.0009501933
72	0x3c38ed0e	0.011286987
73	0xbc22669e	-0.009912161
74	0xbc1a900f	-0.00943376
75	0xbc1962c9	-0.009361931
76	0x3c396cd1	0.011317448
77	0x3bf9b982	0.007620991
78	0x39637744	0.00021692837
79	0x3b5cf62c	0.0033716066
80	0xbc07c889	-0.008287557
81	0x3c2e30f3	0.010631788
82	0xbc2b1289	-0.010441431
83	0x3b977e34	0.004623199
84	0xbc165735	-0.009176065
85	0xbc35681e	-0.011072187
86	0x3c357967	0.011076308
87	0x3c063a47	0.008192605
88	0xbbac2dd5	-0.005254487
89	0x3c0d8e52	0.008639889
90	0xbc0c6095	-0.008567949
91	0x3c0585d8	0.008149587
92	0x3c27439b	0.0102089895
93	0xba4e4fb6	-0.0007870154
94	0xbc0721d5	-0.008247812
95	0xbc30ad26	-0.010783469
96	0x3beb808b	0.0071869544
97	0x3c1c30a1	0.009533078
98	0x3c0c1d81	0.008551956
99	0xbc0ff74d	-0.008786988
100	0xbc0fdd8f	-0.008780851
101	0xbb380c33	-0.0028083443
102	0xbc02d8fc	-0.007986303
103	0x3c045ca6	0.00807873
104	0x3c1f3b8c	0.009718787
105	0xb9d1639f	-0.0003993781
106	0x3c32e4eb	0.010918836
107	0xbb7023b5	-0.0036642377
108	0x3c246ac0	0.010035217
109	0x3c02ad2e	0.00797586
110	0xbc368228	-0.01113943
111	0x3c151478	0.009099118
112	0xbc0b82d0	-0.008515075
113	0xbc2e0a25	-0.010622536
114	0xbc2d4a13	-0.010576743
115	0x3beea3a3	0.0072826906
116	0x3c1fa5ee	0.009744151
117	0xbb50c0e4	-0.0031853253
118	0x3c22709f	0.009914546
119	0x3bf2a219	0.0074045775
120	0xbb40d636	-0.0029424555
121	0xbc367f28	-0.011138715
122	0x3c2f68b1	0.010706113
123	0xbc0d9a04	-0.008642677
124	0xba6ccd86	-0.0009033311
125	0x3a5bf35b	0.000839045
126	0x396ea0d4	0.00022757362
127	0x3c2cbae2	0.010542603

fc_mu.weight f4 [2, 128]
0	0x3b354d11	0.0027664343
1	0x3a1df711	0.00060258905
2	0xbb2684c3	-0.0025408722
3	0x3a05d5ec	0.0005105424
4	0x3aca4e1d	0.0015434657
5	0xb875f64a	-5.8641926e-05
6	0xbb1bb8e7	-0.0023761333
7	0x3a610360	0.0008583572
8	0x3b04a8db	0.0020242247
9	0xbb0664b9	-0.0020506813
10	0xba25aa7c	-0.00063196546
11	0xb9d44dfe	-0.000404939
12	0x3a5e8045	0.00084877416
13	0x3927fb49	0.00016019972
14	0x3ab573dc	0.0013843733
15	0xbb3be053	-0.0028667643
16	0x3a8f2652	0.0010921455
17	0xbb0e7834	-0.0021739127
18	0x3b15c216	0.002285128
19	0x39a18196	0.00030804862
20	0xbadfce26	-0.0017074987
21	0xb952d6ad	-0.00020107134
22	0x3b32c600	0.0027278662
23	0xbab11e2a	-0.0013513018
24	0x3889e761	6.575767e-05
25	0x3ac42c9e	0.001496691
26	0x3b09f117	0.0021048242
27	0xb9a1d0a1	-0.00030863754
28	0x3acfa4e2	0.0015841986
29	0xb9da6e53	-0.00041662398
30	0xbb32c11d	-0.002727575
31	0x3b326184	0.0027218768
32	0x3ad0ed30	0.0015939828
33	0xbb2fee07	-0.0026844756
34	0x38e971a2	0.000111314715
35	0xba98ce17	-0.0011658099
36	0xbab6a416	-0.00139344
37	0x3a920368	0.0011139931
38	0x3af86e39	0.0018953747
39	0xbb310d66	-0.0027016043
40	0xbb1cf042	-0.0023946916
41	0xbad8db88	-0.0016544918
42	0xba5e6f36	-0.00084851997
43	0xbacd269f	-0.0015651769
44	0x3b30c8bd	0.0026975118
45	0x394e55c6	0.00019677644
46	0xbae147fa	-0.0017187588
47	0x39bdee8d	0.00036226623
48	0x3a207553	0.00061209983
49	0x37a4e4f1	1.9656933e-05
50	0x3ad0719a	0.0015902997
51	0xb9f9cce5	-0.0004764564
52	0x3a803e8c	0.0009784265
53	0x3ae727fd	0.0017635819
54	0xbaae6b72	-0.0013307168
55	0x3a100e71	0.0005495316
56	0xb9c1ebb8	-0.00036987453
57	0x38daca1b	0.00010432695
58	0x39c4495e	0.00037438696
59	0x3af1c5a9	0.0018445748
60	0xba53b593	-0.0008076068
61	0x3a9b0808	0.0011827955
62	0x3a94583c	0.00113178
63	0x3b0319a6	0.0020004301
64	0x3ace10ec	0.0015721596
65	0x3b28ebb9	0.0025775267
66	0x3b04e0ae	0.002027552
67	0x3b465b37	0.003026677
68	0xbb1f1a29	-0.0024277067
69	0xbb3f5d42	-0.0029199873
70	0xba8125e3	-0.000985321
71	0xbabdc78f	-0.0014479029
72	0xbb176c69	-0.002310539
73	0xba786d38	-0.0009476724
74	0xbafa03c5	-0.001907461
75	0xbaaf434e	-0.0013371499
76	0xbb015fdf	-0.0019740982
77	0xbb28d9f4	-0.0025764676
78	0xbb23bb03	-0.0024983294
79	0x3a9858a0	0.0011623092
80	0xbaecab75	-0.0018056469
81	0x3b387ebd	0.0028151714
82	0xbb08fdf5	-0.0020903323
83	0xbb3dd9f6	-0.0028969026
84	0xbaf6e3c6	-0.0018836192
85	0xba7bcc66	-0.0009605348
86	0x3aa39851	0.0012481307
87	0x3997ee84	0.00028978672
88	0x3b418e91	0.002953444
89	0xbaf92e82	-0.0019011053
90	0x3b332c06	0.0027339472
91	0x3a30dd84	0.00067468756
92	0xba43f247	-0.0007474762
93	0xba6a6785	-0.0008941817
94	0xb958e7be	-0.00020685696
95	0x3aa752aa	0.0012765725
96	0xbae42888	-0.0017407099
97	0x3ab40cbd	0.0013736706
98	0x3aa48ec9	0.001255476
99	0xbae38343	-0.0017357845
100	0x3ab1ed3e	0.0013574732
101	0xbb1ef29e	-0.0024253498
102	0xbad8837c	-0.0016518678
103	0xbac7af5f	-0.001523476
104	0xbac64f19	-0.0015129774
105	0xb8e05a7f	-0.000106980086
106	0xba0a9d09	-0.0005287682
107	0xbaf9391c	-0.0019014212
108	0x3a877543	0.0010334629
109	0x3a869d68	0.0010270299
110	0xbb24907e	-0.0025110538
111	0x38a7116e	7.966427e-05
112	0x3a8e6aca	0.0010865566
113	0x3abe4b40	0.0014518276
114	0x3a0e1b6c	0.00054209563
115	0x3a7f5230	0.0009739725
116	0xbb2c38be	-0.0026278938
117	0xbb4b9d4f	-0.0031069105
118	0xba91e314	-0.0011130297
119	0x3b302e1c	0.0026882952
120	0x3aa71f26	0.0012750372
121	0xba8dd8a7	-0.0010822014
122	0xb8ede626	-0.00011343909
123	0xbadd8f90	-0.0016903747
124	0xbb127549	-0.002234774
125	0x3b206882	0.0024476354
126	0xbb3e6dee	-0.0029057222
127	0x3ab93429	0.0014129925
128	0xb9a2c874	-0.00031048397
129	0x3ae6ad76	0.0017599303
130	0x39e6ffa6	0.00044059491
131	0x3b58d199	0.0033083914
132	0xbb038252	-0.002006669
133	0x38a79413	7.9907615e-05
134	0xba172f04	-0.0005767199
135	0xb9f83f73	-0.0004734952
136	0x3ae6e82c	0.00176168
137	0xba871ff8	-0.001030921
138	0x3aa2cdde	0.0012420972
139	0xba811eb7	-0.0009851073
140	0xbaccb7c2	-0.0015618729
141	0xb8a688b6	-7.940961e-05
142	0x3b018bb2	0.0019767103
143	0xba8fe836	-0.0010979238
144	0x3a48d780	0.00076615065
145	0xbb070591	-0.0020602683
146	0xba1db297	-0.00060156867
147	0x3a763857	0.00093925506
148	0xbaa516fe	-0.0012595353
149	0x3afa08fe	0.0019076166
150	0xbb5c50db	-0.003361753
151	0x39dd4f6d	0.00042211582
152	0x3b0381fa	0.0020066486
153	0x3a86a8fc	0.001027375
154	0xba9cf12e	-0.0011973733
155	0x3a9b247e	0.0011836437
156	0x3a8e9439	0.0010877914
157	0xbb0f7ca1	-0.0021894353
158	0x3af61dfd	0.0018777248
159	0x3b4b403c	0.0031013628
160	0xba115a87	-0.00055448007
161	0xbb0c2108	-0.0021381993
162	0xbabb27db	-0.0014278846
163	0x3a76dd0c	0.0009417094
164	0xbab6bdf8	-0.0013942113
165	0xb834475e	-4.298181e-05
166	0xbabb1f5c	-0.0014276314
167	0xbae6805e	-0.0017585864
168	0x3ac90ace	0.0015338303
169	0x3b123e7b	0.0022315073
170	0xbad04b6c	-0.0015891618
171	0x3aeabf6a	0.0017909829
172	0xbb32586b	-0.0027213346
173	0x3a2e5a59	0.0006651036
174	0x3b0b1d6e	0.0021227258
175	0x3b4bd612	0.0031102938
176	0x3a910653	0.0011064507
177	0x3a4b7969	0.0007761927
178	0x3a72a162	0.00092556153
179	0x3b7c878b	0.0038532938
180	0xbb005373	-0.001958099
181	0xbac4732f	-0.0014987941
182	0xba29a09a	-0.000647077
183	0xbb25cdbb	-0.0025299627
184	0x3b48450c	0.0030558733
185	0x39da1ea5	0.00041603032
186	0xb88023e6	-6.110202e-05
187	0xbb3bfcda	-0.0028684647
188	0xb997498e	-0.00028855767
189	0xbb50322b	-0.0031768184
190	0xb9bcf898	-0.0003604337
191	0x3b29c78e	0.0025906297
192	0xbae08eda	-0.0017132417
193	0xbae83536	-0.0017716053
194	0xba62948a	-0.000864335
195	0xb9835bbd	-0.00025054617
196	0xbb0089bc	-0.0019613346
197	0xb9617904	-0.00021502754
198	0x3b3e8156	0.002906879
199	0x3ad8b370	0.0016532969
200	0xbb00f142	-0.001967505
201	0x3ad167aa	0.0015976329
202	0x3a95f1fa	0.0011439912
203	0x3a9e5768	0.0012080492
204	0x3a06789c	0.00051296665
205	0xba30bc5e	-0.0006741936
206	0xba95f222	-0.0011439959
207	0x3b3cbfdc	0.002880088
208	0x3b25e63b	0.002531423
209	0x3b07d125	0.0020724025
210	0x3a6f5500	0.00091297925
211	0xba96e82d	-0.0011513286
212	0xb9fbceae	-0.0004802844
213	0x3ac4f9b5	0.0015028032
214	0x3b4e937d	0.0031521015
215	0x3b057a4e	0.0020367089
216	0xba303dde	-0.0006723086
217	0x38879977	6.465887e-05
218	0xbacb8f85	-0.0015530443
219	0x3ac16d86	0.0014757372
220	0xb9aa956a	-0.0003253625
221	0xbac69251	-0.0015149807
222	0xba9902f3	-0.0011673853
223	0xbacb012a	-0.0015488018
224	0xba8998c5	-0.0010497799
225	0xba6618c1	-0.00087774923
226	0x3aabac65	0.0013097642
227	0x39d51358	0.00040640938
228	0x3ac30e55	0.0014881591
229	0xbb52ce1f	-0.0032166315
230	0x3addf808	0.0016934881
231	0x3a785b12	0.000947402
232	0xba3edfc0	-0.0007281266
233	0xba38d973	-0.00070514454
234	0x3b341110	0.002747599
235	0xba928020	-0.00111771
236	0x39f1aca6	0.00046095735
237	0xba83a5aa	-0.0010043879
238	0x3ad1ecd7	0.0016016018
239	0xbac27638	-0.0014836257
240	0xb9dfdc37	-0.00042697947
241	0x3aa6b687	0.0012719192
242	0x3aa901ae	0.0012894177
243	0x3b08fa12	0.0020901007
244	0x3b32f279	0.002730517
245	0x3ae59e67	0.0017518521
246	0xbb01020a	-0.0019685053
247	0x3b0360f4	0.0020046802
248	0xba693644	-0.0008896331
249	0xbb38765b	-0.0028146717
250	0x3b34f601	0.002761245
251	0x398b6c8b	0.00026593017
252	0xbae2e150	-0.001730958
253	0x3a51833d	0.00079922733
254	0xbab93bea	-0.0014132236
255	0x3b6a27ef	0.0035729369

fc_mu.bias f4 [2]
0	0x39af6643	0.00033454792
1	0xb6e0f3de	-6.70411e-06
